runs/ppo_trading/best_model.pt (torch, 353653 bytes, 27 tensors)

features.0.weight f4 [32, 14, 3, 3]
0.19436643 -0.05546376 0.059122097 0.23096202 0.032685097 -0.038638998 -0.008365286 0.094310306
0.12715621 0.101419285 -0.04634638 -0.0016860997 0.16345291 0.00855782 -0.023530869 -0.15104833
0.10361625 0.09842554 0.08574527 0.10112016 0.05597075 0.05286808 0.0035133618 -0.12241481
0.13535759 0.40597084 -0.056173887 -0.09312472 -0.3290486 -0.08217155 0.00032318325 -0.14562318
-0.15128458 0.058446113 0.013297912 0.07586537 0.046004545 -0.01630304 0.009344493 0.06074095
-0.08038448 -0.31802413 0.012657103 -0.08427673 -0.04230256 0.06741355 0.074020214 0.06330903
0.46039143 -0.19404162 0.09307174 -0.18309572 -0.0621216 0.048959717 -0.1451577 -0.05228335
-0.043000396 0.06425366 0.022924906 -0.045511052 0.017372329 -0.054714937 0.15201782 0.11191321
-0.13678621 -0.06676154 0.192411 -0.07122294 -0.118092105 0.0479445 -0.11654273 -0.14856224
0.11262433 -0.41662693 -0.18271536 0.014581969 0.035326604 -0.07641171 -0.031904638 0.049413443
0.0971827 -0.103620656 -0.05373389 0.1910592 -0.023691317 0.040049944 -0.013927274 -0.10650895
0.12285135 0.04450595 0.07591278 0.046372008 -0.109622486 -0.011331399 -0.010646789 0.4046126
0.033588238 0.0046622213 -0.1281447 0.121448524 0.08888271 0.07515039 -0.0052380157 -0.24787743
-0.058091633 -0.08819812 -0.11330213 0.06932263 0.04274464 -0.041380145 -0.16160999 -0.051895767
-0.005792853 -0.17121175 0.08458067 0.098574564 -0.0803828 -0.06130703 -0.10860293 0.07840391
0.11109781 0.012882903 0.00066894887 -0.009276769 0.0013393499 -0.078690924 0.10740788 0.05616399
0.01260183 0.23370148 -0.123400785 -0.1428685 0.09911151 0.1279017 -0.2219696 0.11719577
0.021850271 0.10552462 0.15783508 0.13256294 -0.013478305 0.27108726 0.09233598 -0.0048789117
-0.3921812 0.15281393 0.059798196 0.1077498 -0.1732695 -0.021002814 0.04377127 0.033642024
0.15916342 -0.21051581 0.17888355 -0.035233207 -0.111364774 -0.13694133 0.12595886 -0.06683703
-0.009627105 -0.14835955 -0.09624153 0.083116546 0.069822714 -0.01937819 -0.0040225065 -0.07764307
-0.113345064 -0.0027931177 -0.14328746 0.21243978 0.035483222 -0.029631115 -0.2559435 0.15707663
-0.16976012 0.17148806 -0.0022618815 -0.06279756 0.056449946 0.02780434 0.09074543 0.06252053
-0.11034555 -0.11517021 -0.10822947 -0.06532251 0.18380369 -0.1710675 0.19544029 0.24292587
-0.136658 -0.122896254 -0.017383762 0.012485295 -0.1429108 0.0053440253 -0.13114859 -0.123446986
-0.019790549 -0.0018260244 -0.08556475 -0.11224633 0.16595227 -0.020377966 0.04784914 -0.07205159
-0.16705203 0.023744091 -0.006777956 -0.051529933 0.16692135 -0.13671724 0.15604825 -0.08219661
-0.008046684 0.0087932525 -0.03327128 0.0787127 -0.005262891 0.08984336 0.025098406 -0.078733794
0.06895262 -0.029882915 0.1660318 0.13764988 0.10326773 -0.12008443 -0.026070628 0.0015623192
0.17560801 0.15897447 0.014929644 -0.23086554 0.15936816 0.30767432 0.06132657 -0.3264924
0.083781935 0.020074781 0.15445966 -0.082528405 -0.010130629 -0.08747653 -0.037981644 0.14785996
0.09417123 -0.12561089 -0.051923912 0.015302389 0.063219115 -0.015433413 0.08752367 -0.010499051
00000000: fe07 473e f82d 63bd 032a 723d 4f81 6c3e
00000010: cfe0 053d ed43 1ebd 8d0e 09bc c325 c13d
00000020: 3d35 023e eab4 cf3d b4d5 3dbd 1e00 ddba
00000030: 3360 273e 1936 0c3c cfc3 c0bc 6aac 1abe
00000040: c234 d43d 5493 c93d 379b af3d 1618 cf3d
00000050: 9641 653d 338c 583d 6e40 663b 9eb4 fabd
00000060: 2e9b 0a3e 69db cf3e 9716 66bd 2cb8 bebd
00000070: 0f79 a8be 8f49 a8bd ec70 a939 3e1e 15be
00000080: 58ea 1abe 3165 6f3d 7cdf 593c 4e5f 9b3d
00000090: 436f 3c3d f48d 85bc a519 193c 81cb 783d
000000a0: 9ea0 a4bd 0fd4 a2be bd5f 4f3c 4799 acbd
000000b0: 7345 2dbd 1e10 8a3d e997 973d 2aa8 813d
000000c0: 6db8 eb3e d9b2 46be 659c be3d 727d 3bbe
000000d0: 3873 7ebd fc89 483d 38a4 14be 1127 56bd
000000e0: 2f21 30bd 6c97 833d 03cd bb3c cc69 3abd
000000f0: 6a50 8e3c c51c 60bd 8faa 1b3e c132 e53d
00000100: af11 0cbe 46ba 88bd 6407 453e 55dd 91bd
00000110: 46da f1bd 7461 443d f4ad eebd b320 18be
00000120: 96a7 e63d 2050 d5be bc19 3bbe 36e9 6e3c
00000130: a1b2 103d be7d 9cbd 70ae 02bd c065 4a3d
00000140: b907 c73d 1137 d4bd 1118 5cbd 06a5 433e
00000150: 4b14 c2bc 690b 243d 392f 64bc 5d21 dabd
00000160: 7d99 fb3d df4b 363d 2978 9b3d 93f0 3d3d
00000170: c181 e0bd 55a7 39bc df6f 2ebc 6229 cf3e
00000180: d293 093d 8cc5 983b 5d38 03be 01ba f83d
00000190: 2308 b63d 73e8 993d a9a3 abbb 95d3 7dbe
000001a0: 7ef1 6dbd 37a1 b4bd f20a e8bd 06f9 8d3d
000001b0: 0115 2f3d 3a7e 29bd 177d 25be a890 54bd
000001c0: f9d1 bdbb 2252 2fbe a138 ad3d 76e1 c93d
000001d0: bd9f a4bd 151d 7bbd 376b debd 3b92 a03d
000001e0: 4087 e33d d012 533c 665c 2f3a 97fd 17bc
000001f0: 208d af3a b528 a1bd aaf8 db3d 360c 663d
00000200: e877 4e3c 714f 6f3e 8db9 fcbd 1f4c 12be
00000210: fafa ca3d aaf8 023e 004c 63be 5604 f03d
00000220: 57ff b23c 4b1d d83d 859f 213e 94be 073e
00000230: 1cd4 5cbc f3cb 8a3e a51a bd3d 47df 9fbb
00000240: f9cb c8be 417b 1c3e f4ee 743d edab dc3d
00000250: 8f6d 31be 180e acbc 8149 333d 38cc 093d
00000260: bcfb 223e 7591 57be 402d 373e b250 10bd
00000270: 3713 e4bd 593a 0cbe 5cfb 003e dae1 88bd
00000280: 01bb 1dbc 91eb 17be 471a c5bd 0239 aa3d
00000290: 36ff 8e3d 03bf 9ebc 3bcf 83bb 5403 9fbd
000002a0: 7521 e8bd bd0c 37bb f3b9 12be d089 593e
000002b0: db56 113d f4bc f2bc 070b 83be b2d8 203e
000002c0: 99d5 2dbe 919a 2f3e 133c 14bb 029c 80bd
000002d0: 0f38 673d edc5 e33c bdd8 b93d c30a 803d
000002e0: d9fc e1bd 5cde ebbd 6aa7 ddbd cfc7 85bd
000002f0: 0937 3c3e 522c 2fbe 8021 483e 8fc1 783e
00000300: 13f0 0bbe 08b1 fbbd 6468 8ebc 1f8f 4c3c
00000310: 3557 12be ef1c af3b d14b 06be c6d1 fcbd
00000320: ca1f a2bc 3657 efba 923c afbd 67e1 e5bd
00000330: 64ef 293e b1ef a6bc 76fd 433d c98f 93bd
00000340: b00f 2bbe f882 c23c 9e19 debb 0d11 53bd
00000350: 6eed 2a3e 9bff 0bbe 1dcb 1f3e b256 a8bd
00000360: 3dd6 03bc 9311 103c 7747 08bd 2034 a13d
00000370: 5474 acbb ccff b73d 2c9b cd3c 2f3f a1bd
00000380: 0837 8d3d 04cd f4bc 3d04 2a3e 17f4 0c3e
00000390: 087e d33d d3ee f5bd 1292 d5bc bcc6 cc3a
000003a0: 96d2 333e 34ca 223e 779b 743c 0468 6cbe
000003b0: 6831 233e 7d87 9d3e 9231 7b3d 032a a7be
000003c0: dd95 ab3d de73 a43c ac2a 1e3e a704 a9bd
000003d0: f0fa 25bc e526 b3bd a492 1bbd 9a68 173e
000003e0: d9dc c03d 24a0 00be 2bae 54bd dfb6 7a3c
000003f0: 0679 813d 6ddc 7cbc 9c3f b33d 3604 2cbc

features.0.bias f4 [32]
0.0 0.0 0.0 0.0 0.0 0.0 0.0 0.0
0.0 0.0 0.0 0.0 0.0 0.0 0.0 0.0
0.0 0.0 0.0 0.0 0.0 0.0 0.0 0.0
0.0 0.0 0.0 0.0 0.0 0.0 0.0 0.0
00000000: 0000 0000 0000 0000 0000 0000 0000 0000
00000010: 0000 0000 0000 0000 0000 0000 0000 0000
00000020: 0000 0000 0000 0000 0000 0000 0000 0000
00000030: 0000 0000 0000 0000 0000 0000 0000 0000
00000040: 0000 0000 0000 0000 0000 0000 0000 0000
00000050: 0000 0000 0000 0000 0000 0000 0000 0000
00000060: 0000 0000 0000 0000 0000 0000 0000 0000
00000070: 0000 0000 0000 0000 0000 0000 0000 0000

features.3.weight f4 [64, 32, 3, 3]
0.061841734 0.063769855 0.032278594 0.1075039 -0.009019395 0.08012762 -0.023105478 0.08094553
0.01463018 0.050590057 -0.14667653 -0.034271404 0.04647512 -0.13607901 -0.048096456 -0.024894657
0.032448646 -0.04179583 -0.0944343 -0.13583922 0.08851897 0.0060328473 -0.070235886 0.013644965
-0.037850432 -0.024588142 0.0017440361 0.07465575 -0.109248236 -0.025278512 -0.061548527 0.0934305
-0.046020687 0.04537438 0.053570826 -0.18981983 -0.15606007 0.17477207 0.027590057 -0.032151077
0.0947541 0.037243966 -0.07682235 -0.025955515 0.076906964 0.065825455 0.10491228 0.031067975
-0.034074716 -0.16225703 -0.18409574 0.050133422 -0.12551376 0.030749565 -0.12561078 -0.04078396
-0.017786816 0.060544986 0.13255453 -0.055923816 0.08458255 -0.019276986 -0.010300062 -0.052755445
0.14683037 -0.025843944 0.034357615 -0.0029855843 0.02179569 -0.043766174 -0.018159049 -0.019977951
0.12010363 -0.026723824 0.18720675 -0.012289456 -0.010962739 0.06493865 0.13294505 -0.025862059
0.10618559 -0.01528248 -0.062367473 0.023644002 0.015689509 0.12366857 -0.09005475 -0.034874067
-0.03331137 -0.018233463 -0.08532979 0.22472888 -0.021061057 0.09701555 -0.09993063 -0.039462328
0.19083047 -0.071292326 -0.1147715 0.049276244 0.05205131 0.023476422 -0.019001532 -0.010034816
-0.20563744 -0.18247579 -0.2449703 -0.015025447 0.052388158 0.04138131 -0.025203275 -0.0053851753
-0.08814077 -0.057230666 0.05874685 -0.1411225 0.0928064 0.048227746 -0.024481654 0.010282383
0.06552631 -0.047117583 -0.035314605 0.021630943 -0.06326232 0.100649275 0.0043779095 0.030642591
-0.018784154 0.10827392 -0.15305215 -0.0738512 -0.061888304 -0.15687756 0.15445697 -0.029017976
-0.01108317 0.24789067 0.1730192 0.033788808 0.09266998 -0.07808248 -0.028333517 -0.014901806
-0.05855827 0.046010677 -0.020906663 -0.12876041 -0.013434174 0.050946563 -0.099018574 0.08655172
0.11308234 0.00047703178 0.008084987 0.053666297 -0.04906044 0.01772669 -0.03981318 0.07544335
0.13863668 0.04980494 -0.04028664 0.01490542 -0.084181726 -0.11332883 0.09843598 -0.08077024
-0.018181058 -0.25688022 0.012729488 -0.02297218 -0.0021527756 0.017293947 -0.013667026 -0.14923082
0.0068825004 -0.048967645 -0.118252724 0.14691624 0.11563819 0.07975554 -0.11045979 -0.010311742
-0.045538656 0.10010062 0.08538709 -0.08956859 -0.124389954 -0.0054146852 -0.059917208 -0.022922723
-0.10554602 0.027193181 -0.052243896 -0.041283913 -0.042518213 -0.040996145 -0.04575827 -0.108014174
0.07910677 -0.07970791 -0.04394702 -0.05718303 0.07484824 -0.0068466915 -0.014288759 0.048678577
-0.019733667 0.011877332 -0.05062554 -0.14400098 0.10445982 0.11087497 -0.026952377 0.094156615
0.043007296 -0.102200545 0.022976551 -0.05590126 -0.015176488 0.009365873 -0.015764024 0.04024254
-0.013411372 0.059333667 0.08166789 -0.09733899 0.17015404 -0.07635728 -0.07054158 0.027885303
0.05428697 -0.11961314 -0.04723718 -0.11387992 -0.07257681 -0.019510625 0.046364546 0.093884915
-0.02820945 0.04256069 0.14750552 -0.021127952 0.084802255 0.025054855 -0.03225935 0.003409063
-0.06143801 -0.07969172 -0.027281314 -0.022072367 0.1079159 0.008228132 0.031840175 -0.051855106
00000000: c24d 7d3d c599 823d 8f36 043d 012b dc3d
00000010: 16c6 13bc f319 a43d b347 bdbc c5c6 a53d
00000020: 6cb3 6f3c 8537 4f3d 5f32 16be 2c60 0cbd
00000030: b25c 3e3d 4c58 0bbe ca00 45bd e1ef cbbc
00000040: dfe8 043d 1b32 2bbd c566 c1bd 7019 0bbe
00000050: 6f49 b53d 31af c53b d5d7 8fbd 228f 5f3c
00000060: 0e09 1bbd 126d c9bc 2498 e43a 1de5 983d
00000070: 8abd dfbd e214 cfbc 4f1a 7cbd 7d58 bf3d
00000080: 3080 3cbd 7cda 393d 156d 5b3d 2160 42be
00000090: 36ce 1fbe 73f7 323e 8b04 e23c d9b0 03bd
000000a0: 700e c23d 218d 183d 0955 9dbd a9a0 d4bc
000000b0: 6681 9d3d 7fcf 863d 40dc d63d 4482 fe3c
000000c0: ee91 0bbd b526 26be 9883 3cbe b458 4d3d
000000d0: ae86 00be 83e6 fb3c 1da0 00be 150d 27bd
000000e0: a8b5 91bc 05fe 773d 60bc 073e 5f10 65bd
000000f0: 9e39 ad3d c5ea 9dbc 97c1 28bc 1816 58bd
00000100: b35a 163e aeb6 d3bc 92ba 0c3d cba9 43bb
00000110: e08c b23c 2944 33bd 49c2 94bc cda8 a3bc
00000120: e4f8 f53d eceb dabc 20b3 3f3e b759 49bc
00000130: 0f9d 33bc 8efe 843d bf22 083e abdc d3bc
00000140: d577 d93d 5e63 7abc 0975 7fbd 11b1 c13c
00000150: 4987 803c f245 fd3d a06e b8bd 1cd8 0ebd
00000160: 8171 08bd 585e 95bc 63c1 aebd 541f 663e
00000170: 3d88 acbc 17b0 c63d 6ea8 ccbd 40a3 21bd
00000180: 1069 433e b601 92bd 520d ebbd e3d5 493d
00000190: c133 553d a051 c03c 1aa9 9bbc 1269 24bc
000001a0: 9f92 52be efda 3abe 7fd9 7abe 4b2d 76bc
000001b0: f794 563d 737f 293d 1977 cebc 2076 b0bb
000001c0: 2683 b4bd b46a 6abd 89a0 703d 6b82 10be
000001d0: 4811 be3d 758a 453d c08d c8bc 7177 283c
000001e0: a832 863d 5efe 40bd 0ca6 10bd 6033 b13c
000001f0: ad8f 81bd 3521 ce3d 9174 8f3b 2c06 fb3c
00000200: 3ae1 99bc b8be dd3d b4b9 1cbe 4c3f 97bd
00000210: 977e 7dbd 83a4 20be f829 1e3e 1bb7 edbc
00000220: 2f96 35bc 0dd7 7d3e f22b 313e 2266 0a3d
00000230: c2c9 bd3d b5e9 9fbd b11b e8bc b426 74bc
00000240: ccda 6fbd b175 3c3d 7344 abbc c5d9 03be
00000250: 021b 5cbc 58ad 503d 40ca cabd 0742 b13d
00000260: b797 e73d 1f1a fa39 e576 043c 31d1 5b3d
00000270: 9af3 48bd 9037 913c 2513 23bd 0b82 9a3d
00000280: c6f6 0d3e 4400 4c3d 9b03 25bd dd35 743c
00000290: 7867 acbd f218 e8bd ce98 c93d de6a a5bd
000002a0: 71f0 94bc ce85 83be 588f 503c 2730 bcbc
000002b0: 9515 0dbb 09ac 8d3c a9eb 5fbc f7cf 18be
000002c0: 9986 e13b 4c92 48bd 7c2e f2bd 3671 163e
000002d0: b7d3 ec3d df56 a33d be38 e2bd 95f2 28bc
000002e0: be86 3abd 8e01 cd3d 6ddf ae3d bd6f b7bd
000002f0: 29c0 febd ac6d b1bb bf6b 75bd 6fc8 bbbc
00000300: 8328 d8bd 3cc4 de3c b2fd 55bd 5219 29bd
00000310: 9427 2ebd 93eb 27bd 066d 3bbd 8936 ddbd
00000320: bb02 a23d e73d a3bd ca01 34bd c138 6abd
00000330: 094a 993d 365a e0bb 661b 6abc 3063 473d
00000340: 80a8 a1bc 2499 423c ba5c 4fbd fe74 13be
00000350: 08ef d53d 6b12 e33d 3bcb dcbc 2fd5 c03d
00000360: 6b28 303d 854e d1bd 5239 bc3c b8f8 64bd
00000370: cea6 78bc 5273 193c 8e23 81bc 5dd5 243d
00000380: 5fbb 5bbc dc07 733d 7f41 a73d aa59 c7bd
00000390: dc3c 2e3e 3561 9cbd 1b78 90bd b86f e43c
000003a0: 045c 5e3d bcf7 f4bd c67b 41bd e039 e9bd
000003b0: 27a3 94bd bfd4 9fbc c0e8 3d3d bc46 c03d
000003c0: 8117 e7bc 1e54 2e3d b00b 173e 8714 adbc
000003d0: ceac ad3d d73f cd3c 6122 04bd 966a 5f3b
000003e0: 6ca6 7bbd 6a35 a3bd 107d dfbc 1cd1 b4bc
000003f0: 0303 dd3d 49cf 063c d86a 023d 0566 54bd

features.3.bias f4 [64]
0.0 0.0 0.0 0.0 0.0 0.0 0.0 0.0
0.0 0.0 0.0 0.0 0.0 0.0 0.0 0.0
0.0 0.0 0.0 0.0 0.0 0.0 0.0 0.0
0.0 0.0 0.0 0.0 0.0 0.0 0.0 0.0
0.0 0.0 0.0 0.0 0.0 0.0 0.0 0.0
0.0 0.0 0.0 0.0 0.0 0.0 0.0 0.0
0.0 0.0 0.0 0.0 0.0 0.0 0.0 0.0
0.0 0.0 0.0 0.0 0.0 0.0 0.0 0.0
00000000: 0000 0000 0000 0000 0000 0000 0000 0000
00000010: 0000 0000 0000 0000 0000 0000 0000 0000
00000020: 0000 0000 0000 0000 0000 0000 0000 0000
00000030: 0000 0000 0000 0000 0000 0000 0000 0000
00000040: 0000 0000 0000 0000 0000 0000 0000 0000
00000050: 0000 0000 0000 0000 0000 0000 0000 0000
00000060: 0000 0000 0000 0000 0000 0000 0000 0000
00000070: 0000 0000 0000 0000 0000 0000 0000 0000
00000080: 0000 0000 0000 0000 0000 0000 0000 0000
00000090: 0000 0000 0000 0000 0000 0000 0000 0000
000000a0: 0000 0000 0000 0000 0000 0000 0000 0000
000000b0: 0000 0000 0000 0000 0000 0000 0000 0000
000000c0: 0000 0000 0000 0000 0000 0000 0000 0000
000000d0: 0000 0000 0000 0000 0000 0000 0000 0000
000000e0: 0000 0000 0000 0000 0000 0000 0000 0000
000000f0: 0000 0000 0000 0000 0000 0000 0000 0000

features.6.weight f4 [64, 64, 3, 3]
0.08924477 0.011230761 -0.009406889 -0.04640942 0.03192257 -0.0043188045 0.012174579 0.072468795
-0.0658528 -0.032900922 0.029665502 -0.06409648 0.049498457 0.057297986 -0.1017187 0.061089527
0.073120944 -0.024860738 0.055794153 -0.05402323 0.041498978 -0.014749947 0.1012077 0.11555338
-0.065723956 -0.018820852 -0.008157266 0.00072582206 0.01822397 -0.03239462 0.04586108 0.044668943
0.038465753 -0.09507082 0.04085626 -0.028495464 0.018139163 0.00526729 0.047141153 0.027224224
-0.07655145 -0.0013281108 0.014085208 0.01132511 -0.0020112826 -0.046383455 -0.016101383 0.061537586
0.013973852 0.027512059 0.007834855 -0.040596142 0.045597542 0.028856484 0.061047643 -0.0526426
-0.07360177 -0.14988932 0.004296451 -0.04071549 0.016823716 -0.00041170366 -0.07985968 0.08672174
0.045229264 -0.0261251 -0.06273696 0.002335214 0.031403173 0.04572235 -0.07914195 -0.039224662
0.053861536 0.0018441832 -0.06445294 -0.06454421 -0.0034063396 -0.052051127 -0.1316302 0.12243024
0.0047638416 -0.03649834 -0.01797164 0.040913567 -0.118188135 -0.03941651 0.013645001 -0.11916121
0.06791653 -0.01632139 -0.04443028 0.07898735 -0.090582065 0.035839334 -0.005215518 0.014278666
-0.05362394 0.042302012 -0.009531378 -0.039993767 -0.04625267 -0.044564553 -0.019402057 0.002042387
-0.09032544 -0.08043598 -0.062152095 0.030182147 0.005665355 0.05325157 0.024031617 0.013596773
0.012114823 0.0630804 0.0077894423 0.052931838 0.053492736 0.03902118 -0.043412548 0.057152964
0.11344959 -0.00031873968 0.010716348 0.060462557 0.08236885 0.10022423 0.019338617 -0.05687324
-0.029414598 -0.09147239 0.034133185 0.08354459 -0.03200134 -0.07037826 -0.10123514 -0.0046930523
-0.026767228 -0.011581056 0.033265695 0.011463269 0.06111855 -0.06868118 0.025759932 -0.018169235
0.03925559 0.045046866 0.06672259 -0.042167522 -0.008244477 -0.0077284747 0.05150685 -0.00010750222
-0.065289 0.040636607 0.033975642 0.050368197 0.1532162 -0.07501817 0.11381605 -0.0054575703
-0.03892142 -0.04599592 -0.08237514 0.024914946 -0.037695006 -0.0165467 -0.12107988 -0.04827381
0.034555208 0.062065363 0.00044367896 -0.036523703 0.06883851 -0.01188441 0.11246306 -0.028623126
0.064882286 0.05991236 -0.045483388 -0.015048182 -0.0010123176 0.013530504 -0.024437988 -0.018405706
0.011410415 -0.034545157 -0.009118698 -0.04581268 -0.016109323 0.026330443 -0.022853075 0.023213472
-0.015015402 0.015275594 0.081532076 -0.14747204 -0.0073216017 0.001394492 0.19088066 0.12048477
-0.04751425 0.0046680635 -0.023095096 0.006872845 0.044686563 -0.05380875 -0.022550289 -0.06638214
0.0090146605 -0.046639137 -0.04585093 -0.0469626 -0.044214293 0.06957313 0.08248706 -0.032545913
0.0031868387 -0.01577024 -0.045439035 -0.03593714 0.032092568 -0.10045778 0.07258166 0.067518026
0.07900494 0.008571258 -0.030797366 -6.5197455e-06 -0.021545572 0.100072466 0.031581614 0.04958408
-0.041694324 -0.030663537 -0.054227635 0.039997745 0.09982835 -0.022299001 0.04312096 -0.019325094
-0.05347577 -0.03208558 -0.07893226 -0.019054238 -0.051047172 -0.048303403 -0.08830137 0.028153813
-0.013021345 -0.019115524 0.040899653 0.09309812 0.0022929423 -0.10751814 0.060156386 -0.007339804
00000000: f6c5 b63d 3a01 383c 5a1f 1abc ce17 3ebd
00000010: 3ec1 023d c284 8dbb e377 473c 856a 943d
00000020: d5dd 86bd 1ec3 06bd 1105 f33c 0445 83bd
00000030: e5be 4a3d 4bb1 6a3d e551 d0bd 0339 7a3d
00000040: 6fc0 953d bfa8 cbbc 6988 643d 7647 5dbd
00000050: d5fa 293d c3a9 71bc fc45 cf3d 40a7 ec3d
00000060: 489a 86bd 302e 9abc 0ea6 05bc 1845 3e3a
00000070: 6f4a 953c 39b0 04bd d4d8 3b3d c8f6 363d
00000080: 448e 1d3d 7db4 c2bd e558 273d 526f e9bc
00000090: 9598 943c 3b99 ac3b 1517 413d 5605 df3c
000000a0: 02c7 9cbd 0114 aeba a5c5 663c f48c 393c
000000b0: b9cf 03bb 94fc 3dbd 0ce7 83bc d60e 7c3d
000000c0: 95f2 643c f860 e13c c35d 003c 2448 26bd
000000d0: 7dc4 3a3d 6f64 ec3c 180d 7a3d c49f 57bd
000000e0: 86bc 96bd 967c 19be 3ec9 8c3b 49c5 26bd
000000f0: e4d1 893c eed9 d7b9 798d a3bd 2b9b b13d
00000100: 5242 393d 4e04 d6bc 3c7c 80bd 640a 193b
00000110: 9da0 003d 5c47 3b3d 2d15 a2bd 0aaa 20bd
00000120: ea9d 5c3d 85b8 f13a e7ff 83bd c12f 84bd
00000130: e53c 5fbb 9033 55bd 11ca 06be b5bc fa3d
00000140: 001a 9c3b 497f 15bd 4339 93bc fc94 273d
00000150: 9f0c f2bd 3573 21bd 488f 5f3c cb0a f4bd
00000160: d217 8b3d 70b4 85bc 86fc 35bd 1fc4 a13d
00000170: 1783 b9bd 44cc 123d f0e6 aabb 11f1 693c
00000180: c7a4 5bbd e044 2d3d 7f29 1cbc 81d0 23bd
00000190: 7173 3dbd 5289 36bd 10f1 9ebc 91d9 053b
000001a0: 8bfc b8bd 9ebb a4bd 3293 7ebd 8d40 f73c
000001b0: 71a4 b93b 511e 5a3d f4dd c43c 00c5 5e3c
000001c0: 407d 463c 4c30 813d 943e ff3b 0ecf 583d
000001d0: 331b 5b3d acd4 1f3d 5bd1 31bd 3a19 6a3d
000001e0: 4258 e83d 841c a7b9 9f93 2f3c 96a7 773d
000001f0: 00b1 a83d 5c42 cd3d 056c 9e3c eaf3 68bd
00000200: e2f6 f0bc e055 bbbd 3dcf 0b3d 6d19 ab3d
00000210: d613 03bd 7a22 90bd 5e54 cfbd 2dc8 99bb
00000220: f246 dbbc 78be 3dbc 9c41 083d 6fd0 3b3c
00000230: 7257 7a3d b8a8 8cbd 7e06 d33c a6d7 94bc
00000240: 78ca 203d 1083 383d daa5 883d dab7 2cbd
00000250: d813 07bc 253f fdbb d9f8 523d d172 e1b8
00000260: 3db6 85bd 9272 263d 0b2a 0b3d e24e 4e3d
00000270: b5e4 1c3e 20a3 99bd 6418 e93d 6bd5 b2bb
00000280: 116c 1fbd 3866 3cbd 4cb4 a8bd 6e1a cc3c
00000290: 1466 1abd f28c 87bc baf8 f7bd c2ba 45bd
000002a0: c389 0d3d 4038 7e3d 959d e839 e199 15bd
000002b0: 34fb 8c3d d4b6 42bc 0853 e63d 0c7b eabc
000002c0: 01e1 843d aa66 753d ca4c 3abd a68c 76bc
000002d0: beaf 84ba 0caf 5d3c 2d32 c8bc 90c7 96bc
000002e0: c0f2 3a3c 397f 0dbd 9766 15bc 14a6 3bbd
000002f0: b3f7 83bc f1b2 d73c 5f36 bbbc 2e2a be3c
00000300: 2903 76bc 7c46 7a3c 4afa a63d e902 17be
00000310: 0cea efbb 63c7 b63a 3876 433e b8c0 f63d
00000320: 4d9e 42bd 8ef6 983b ed31 bdbc 9a35 e13b
00000330: 4209 373d 9066 5cbd 62bb b8bc 5cf3 87bd
00000340: 3ab2 133c ae08 3fbd 2fce 3bbd db5b 40bd
00000350: 0c1a 35bd 5b7c 8e3d faee a83d dd4e 05bd
00000360: 48da 503b 9730 81bc 481e 3abd d332 13bd
00000370: 7f73 033d cfbc cdbd b1a5 943d e446 8a3d
00000380: 58cd a13d 766e 0c3c c24a fcbc 30c4 dab6
00000390: 5780 b0bc cbf2 cc3d b95b 013d ad18 4b3d
000003a0: abc7 2abd 1932 fbbc cc1d 5ebd add4 233d
000003b0: ce72 cc3d 65ac b6bc 9b9f 303d a94f 9ebc
000003c0: 6909 5bbd 2b6c 03bd 3da7 a1bd a217 9cbc
000003d0: d716 51bd cad9 45bd 59d7 b4bd d3a2 e63c
000003e0: 7b57 55bc 2998 9cbc 6586 273d 3aaa be3d
000003f0: 3045 163b 7832 dcbd 8b66 763d bd82 f0bb

features.6.bias f4 [64]
0.0 0.0 0.0 0.0 0.0 0.0 0.0 0.0
0.0 0.0 0.0 0.0 0.0 0.0 0.0 0.0
0.0 0.0 0.0 0.0 0.0 0.0 0.0 0.0
0.0 0.0 0.0 0.0 0.0 0.0 0.0 0.0
0.0 0.0 0.0 0.0 0.0 0.0 0.0 0.0
0.0 0.0 0.0 0.0 0.0 0.0 0.0 0.0
0.0 0.0 0.0 0.0 0.0 0.0 0.0 0.0
0.0 0.0 0.0 0.0 0.0 0.0 0.0 0.0
00000000: 0000 0000 0000 0000 0000 0000 0000 0000
00000010: 0000 0000 0000 0000 0000 0000 0000 0000
00000020: 0000 0000 0000 0000 0000 0000 0000 0000
00000030: 0000 0000 0000 0000 0000 0000 0000 0000
00000040: 0000 0000 0000 0000 0000 0000 0000 0000
00000050: 0000 0000 0000 0000 0000 0000 0000 0000
00000060: 0000 0000 0000 0000 0000 0000 0000 0000
00000070: 0000 0000 0000 0000 0000 0000 0000 0000
00000080: 0000 0000 0000 0000 0000 0000 0000 0000
00000090: 0000 0000 0000 0000 0000 0000 0000 0000
000000a0: 0000 0000 0000 0000 0000 0000 0000 0000
000000b0: 0000 0000 0000 0000 0000 0000 0000 0000
000000c0: 0000 0000 0000 0000 0000 0000 0000 0000
000000d0: 0000 0000 0000 0000 0000 0000 0000 0000
000000e0: 0000 0000 0000 0000 0000 0000 0000 0000
000000f0: 0000 0000 0000 0000 0000 0000 0000 0000

policy.0.weight f4 [64, 64]
-0.055121742 0.10658101 0.065434776 0.2002055 -0.11964191 0.10610272 0.1402459 -0.2876261
0.09941887 -0.07498873 -0.36804742 0.29323384 0.09371969 0.24580409 0.052211553 0.057149634
0.44385302 -0.044144824 0.058011007 0.09035993 0.2349369 -0.24370927 -0.08994308 0.05045123
0.14724866 0.13465475 0.23640682 0.009673603 -0.19409694 0.0001245214 -0.009232239 -0.049559798
-0.050504174 0.005225677 0.08912191 -0.013812339 -0.2445532 -0.2830109 0.2153429 -0.009433226
-0.21815905 -0.19960946 -0.06428691 0.39053893 0.09335532 0.03008835 -0.07506128 0.4941402
-0.059958942 0.08412342 -0.22624508 0.15575886 -0.0936496 0.04890521 -0.16096626 0.07691217
0.122925915 0.20654754 0.049372084 -0.22664453 -0.045647338 -0.18228951 0.15900712 0.16514784
0.08741082 -0.339755 0.29226556 -0.49124002 -0.06722993 0.18194616 0.113869816 -0.15445344
0.10310876 0.18025209 0.17651242 0.107320644 -0.18406598 0.19244379 -0.3039156 0.10979183
-0.13157836 -0.24545488 -0.032858044 -0.12484262 0.032235727 -0.14341544 0.14351869 0.08923785
0.20893347 0.18000048 -0.069377735 0.42996648 0.28374267 -0.17833178 0.1265624 -0.13433763
0.11411816 0.054071836 0.021805033 0.12662634 0.18190046 -0.17360684 0.037653666 0.1406354
0.1993935 0.14028153 0.026253462 0.21365462 0.20803642 0.023168424 0.18778773 -0.21848316
-0.09096547 0.0018986531 -0.23706236 -0.09643463 -0.1636072 -0.08340546 -0.34411466 -0.05493752
0.0783205 0.1228388 -0.1128495 0.06250812 -0.16490485 -0.05132848 0.105390064 0.061380476
-0.06162747 0.014005648 0.059368894 -0.012524338 -0.29199234 -0.42171103 0.08910686 -0.14141567
0.16364074 -0.24281846 -0.082088165 -0.08594229 0.025855634 -0.09842615 0.03603075 0.07117573
0.18535934 0.17620255 0.18612938 -0.07856216 -0.14083213 -0.06547384 0.42038542 -0.23172012
0.1539158 -0.32082734 -0.13161008 -0.081938565 -0.11019296 0.17731887 0.08832795 -0.25757667
0.27763507 -0.021535698 -0.17268781 0.2449703 -0.12929153 0.08976598 0.037378874 -0.20588434
0.220859 0.09623415 0.12630208 0.07591615 0.2899162 -0.21079622 -0.0753237 -0.2936753
0.026476242 -0.015799262 -0.20367281 0.22833963 0.2678419 -0.055020392 0.09260083 -0.18926536
-0.019775867 0.119828105 -0.006018056 -0.23148498 -0.1005626 0.068710215 0.32367358 -0.13324143
0.04248796 0.03678264 -0.17549463 0.07524398 0.13652423 -0.27706683 0.28450033 0.13387813
-0.01240213 -0.12440385 -0.04682606 -0.109448776 -0.01630863 -0.1429955 0.1411554 0.080614194
0.07469545 -0.20856501 -0.37167674 -0.31705406 0.16716158 -0.03746432 0.07453232 -0.039036535
0.16771366 -0.020940604 0.10517721 0.028267516 0.0736613 -0.22591676 -0.09090142 0.008025721
0.42329943 0.076169126 0.07837302 -0.15229963 -0.14637099 0.24888545 -0.06517644 0.02761529
0.459849 -0.16904499 -0.08136026 0.33868375 -0.20341389 0.08447338 -0.12271687 0.11182538
0.046066247 -0.12520553 0.046842717 -0.1491595 -0.13810456 -0.18640998 -0.0008630363 0.25509992
-0.03821932 -0.20325907 0.25796676 0.11479428 -0.26355314 0.24529028 0.07490426 0.32116562
00000000: 56c7 61bd 2547 da3d ab02 863d ac02 4d3e
00000010: d106 f5bd 624c d93d 9f9c 0f3e ba43 93be
00000020: 1f9c cb3d b193 99bd b670 bcbe bf22 963e
00000030: 1cf0 bf3d 11b4 7b3e c8db 553d bc15 6a3d
00000040: b440 e33e 34d1 34bd f39c 6d3d a10e b93d
00000050: 4c93 703e ec8e 79be 1434 b8bd f3a5 4e3d
00000060: 5ac8 163e efe2 093e a114 723e 087e 1e3c
00000070: 59c1 46be f591 0239 d142 17bc 37ff 4abd
00000080: 77dd 4ebd 283c ab3b 8c85 b63d 264d 62bc
00000090: 276c 7abe cee6 90be d982 5c3e d18d 1abc
000000a0: 1665 5fbe 6c66 4cbe dba8 83bd b8f4 c73e
000000b0: 1331 bf3d d87b f63c bab9 99bd f2ff fc3e
000000c0: 8297 75bd e648 ac3d caac 67be 407f 1f3e
000000d0: 5dcb bfbd d450 483d 57d4 24be 2184 9d3d
000000e0: 95c0 fb3d 3381 533e 623a 4a3d 8115 68be
000000f0: b4f8 3abd 1aaa 3abe c3d2 223e 841c 293e
00000100: 7204 b33d 5ef4 adbe d5a3 953e d083 fbbe
00000110: d8af 89bd 1850 3a3e 9434 e93d 0b29 1ebe
00000120: b02a d33d 0194 383e acbf 343e edca db3d
00000130: cb7b 3cbe fc0f 453e d39a 9bbe 8ada e03d
00000140: 7abc 06be 8658 7bbe 2896 06bd 7dad ffbd
00000150: 9c09 043d 7fdb 12be 90f6 123e 55c2 b63d
00000160: a8f2 553e 0c52 383e ea15 8ebd 9124 dc3e
00000170: b846 913e 9b9c 36be 9399 013e ce8f 09be
00000180: c8b6 e93d 6e7a 5d3d 78a0 b23c 56aa 013e
00000190: 1d44 3a3e fec5 31be bb3a 1a3d ba02 103e
000001a0: cf2d 4c3e f6a5 0f3e 8011 d73c 47c8 5a3e
000001b0: 8007 553e b5cb bd3c 6d4b 403e 0dba 5fbe
000001c0: 1b4c babd 3adc f83a 7ac0 72be 857f c5bd
000001d0: a588 27be 7bd0 aabd cc2f b0be 2a06 61bd
000001e0: 8066 a03d e992 fb3d a31d e7bd 4204 803d
000001f0: d1dc 28be d03d 52bd bfd6 d73d 186a 7b3d
00000200: 166d 7cbd f277 653c cc2c 733d e232 4dbc
00000210: 0580 95be 82ea d7be a87d b63d 45cf 10be
00000220: 7091 273e 67a5 78be d71d a8bd 8302 b0bd
00000230: 32cf d33c a693 c9bd fb94 133d 95c4 913d
00000240: d7ce 3d3e 716e 343e b398 3e3e 33e5 a0bd
00000250: 4c36 10be 2617 86bd c23c d73e 0a48 6dbe
00000260: 1a9c 1d3e 7b43 a4be cbc4 06be 68cf a7bd
00000270: d9ac e1bd 1493 353e 49e5 b43d 17e1 83be
00000280: 2f26 8e3e a26b b0bc 13d5 30be 7fd9 7a3e
00000290: 0065 04be 3ad7 b73d 971a 193d 58d3 52be
000002a0: dd28 623e 6916 c53d 5555 013e ed79 9b3d
000002b0: e56f 943e f7da 57be 5043 9abd 9c5c 96be
000002c0: b4e4 d83c 746d 81bc 9b8f 50be ddd1 693e
000002d0: 9322 893e 105d 61bd 81a5 bd3d c7ce 41be
000002e0: 0001 a2bc 7068 f53d 1d33 c5bb 660a 6dbe
000002f0: c4f3 cdbd f1b7 8c3d 8bb8 a53e 7170 08be
00000300: db07 2e3d 65a9 163d ddb4 33be 8419 9a3d
00000310: 02cd 0b3e b4db 8dbe 07aa 913e 5917 093e
00000320: 4e32 4bbc 72c7 febd afcc 3fbd ae26 e0bd
00000330: ad99 85bc 6a6d 12be 0b8b 103e 0e19 a53d
00000340: eef9 983d 1192 55be 6a4c bebe e954 a2be
00000350: 682c 2b3e 3074 19bd 67a4 983d c6e4 1fbd
00000360: 21bd 2b3e a18b abbc 2667 d73d 4791 e73c
00000370: bcdb 963d b956 67be 862a babd 507e 033c
00000380: b4ba d83e 8ffe 9b3d 0982 a03d 6ff4 1bbe
00000390: 47e2 15be d4db 7e3e 3a7b 85bd 7639 e23c
000003a0: 5471 eb3e 211a 2dbe 35a0 a6bd f567 ad3e
000003b0: bb4b 50be 6100 ad3d fb52 fbbd b404 e53d
000003c0: f6af 3c3d e135 00be 26de 3f3d 45bd 18be
000003d0: 486b 0dbe 42e2 3ebe 633d 62ba 759c 823e
000003e0: dd8b 1cbd 2523 50be 3814 843e 4319 eb3d
000003f0: 70f0 86be 602d 7b3e 6867 993d d26f a43e

policy.0.bias f4 [64]
0.0005807572 -0.0010674342 0.0 0.0006535751 0.0010850491 -0.0011173715 -0.0028555882 -0.00068420835
0.0032448506 0.0006527211 0.0 0.0 -0.00069660816 0.0 0.0 -0.00068436516
0.004704119 -0.00078105455 0.0019090541 0.0 0.0010784081 0.0 0.001393231 0.0
-0.00039126692 0.0011198145 0.0 -0.0010034693 -0.00059625367 0.0 0.0010496376 -0.0012672119
0.0025225182 0.00088070653 0.003109332 -0.0014534871 0.0 -0.0011102309 -0.0014695673 0.0
0.0 0.001204836 0.0013623209 0.0013463598 0.0012500061 0.0 0.0 0.0
0.002592471 0.0 0.0 0.0 -0.0006825121 -0.0011634388 0.0011255939 -0.0010475813
0.00044688114 -0.0019766514 -0.0014608894 -0.00068741577 -0.00027936036 -0.0010808284 0.0012105459 0.0013867347
00000000: f53d 183a 26e9 8bba 0000 0000 af54 2b3a
00000010: 3538 8e3a c474 92ba d224 3bbb 725c 33ba
00000020: 8fa7 543b 5f1b 2b3a 0000 0000 0000 0000
00000030: 959c 36ba 0000 0000 0000 0000 f866 33ba
00000040: 0325 9a3b afbf 4cba 3a39 fa3a 0000 0000
00000050: 5f59 8d3a 0000 0000 139d b63a 0000 0000
00000060: f522 cdb9 bdc6 923a 0000 0000 d886 83ba
00000070: e84d 1cba 0000 0000 fe93 893a 9318 a6ba
00000080: d550 253b 37df 663a efc5 4b3b ef82 beba
00000090: 0000 0000 2b85 91ba 7f9e c0ba 0000 0000
000000a0: 0000 0000 96eb 9d3a e78f b23a 5778 b03a
000000b0: 3fd7 a33a 0000 0000 0000 0000 0000 0000
000000c0: 72e6 293b 0000 0000 0000 0000 0000 0000
000000d0: 9dea 32ba 877e 98ba aa88 933a ff4e 89ba
000000e0: 5f4b ea39 b58a 01bb 507b bfba b133 34ba
000000f0: 1d77 92b9 95aa 8dba 2eab 9e3a 18c3 b53a

policy.2.weight f4 [3, 64]
0.2146652 -0.11768299 -0.05866195 0.1951088 0.19173457 -0.11790578 -0.07514609 -0.02436865
-0.17803581 0.06942774 0.16992873 -0.04256825 -0.15692236 -0.0029296712 -0.013900365 -0.14535016
-0.08273407 -0.21512285 0.102058545 0.064036064 0.111191474 0.32814017 0.26696786 0.20259456
-0.37101975 0.17379948 0.019331835 -0.01663639 -0.045457892 0.15167981 0.34414446 -0.14849675
0.062946066 0.13379607 -0.22543247 -0.11475764 0.032189414 -0.10037912 -0.19852719 -0.1113908
-0.06525436 0.22119592 0.01590172 0.34521106 0.038949445 -0.0025249016 0.20065412 0.058933504
0.22659594 0.056357026 0.09585785 0.19037913 -0.12103414 -0.22842358 0.041900203 -0.0009028326
0.054560356 -0.40621302 -0.14646335 -0.06294844 0.23301375 -0.10359302 0.5498951 -0.06274747
0.1561012 0.123868525 -0.42358398 0.06265598 -0.15588427 0.013835677 0.08628892 0.041336708
0.015043786 -0.020717423 0.065807864 0.20847122 -0.12658566 -0.01885735 0.4440119 -0.091395095
0.0050070845 -0.14525013 0.010655293 0.1611636 -0.07616864 0.13918531 -0.06997691 0.26718923
-0.056479674 -0.38223046 0.094678454 0.041889593 0.035159085 -0.06633485 -0.008237772 0.03745597
0.43269104 0.09500825 0.013786376 0.17474064 -0.08285133 0.14088093 0.017322484 0.07453294
-0.12861796 -0.091870725 -0.17969282 -0.10717821 -0.20187701 -0.14243564 0.17835389 0.13708983
-0.30797026 -0.01378749 0.4698242 0.10947978 0.03028293 0.16781531 -0.13083641 0.21059152
0.04197802 0.39650303 0.008837353 0.10652449 0.2468411 0.069568425 0.15494193 -0.20678397
-0.01923028 0.21080305 0.010884592 -0.13612227 -0.17465253 0.0149325915 -0.15377289 -0.19883259
0.27787003 -0.11667084 0.34917456 -0.022209536 0.022015853 0.20826685 0.28826568 0.020296408
0.2511236 0.012619547 0.136966 -0.038996596 -0.089135535 0.32064554 0.111279316 0.071648054
0.1552269 -0.3428198 -0.18433586 0.0022155517 0.17554411 -0.043461934 -0.22301339 -0.2643958
0.11591765 0.16636647 -0.02911839 -0.12795399 0.20588724 0.14378847 -0.19202346 -0.18116762
0.10437086 -0.01054379 -0.08414353 0.03584494 0.18620837 0.069466755 -0.038162574 -0.19803946
0.09326624 -0.3261285 -0.37205118 -0.08660422 0.23417541 0.10510406 -0.111389525 -0.2513678
-0.0038094886 -0.15345314 -0.15273313 0.28734338 -0.26367748 0.105313376 0.2603553 -0.03201025
00000000: 32d1 5b3e c803 f1bd 8347 70bd 9aca 473e
00000010: 1156 443e 9678 f1bd 31e6 99bd c3a0 c7bc
00000020: 054f 36be 2230 8e3d cc01 2e3e 0c5c 2ebd
00000030: 41b0 20be baff 3fbb 5bbe 63bc acd6 14be
00000040: 7b70 a9bd 2a49 5cbe 1204 d13d 5725 833d
00000050: 5bb8 e33d fd01 a83e 03b0 883e f374 4f3e
00000060: 4df6 bdbe 7ef8 313e cc5d 9e3c 0a49 88bc
00000070: 0e32 3abd f451 1b3e b433 b03e 880f 18be
00000080: dee9 803d d601 093e c5d7 66be 0e06 ebbd
00000090: 0cd9 033d 9193 cdbd b64a 4bbe dc20 e4bd
000000a0: 14a4 85bd 2f81 623e 5344 823c 81bf b03e
000000b0: 7489 1f3d d278 25bb 4678 4d3e 4264 713d
000000c0: c408 683e a0d6 663d 1f51 c43d bff2 423e
000000d0: bfe0 f7bd dfe7 69be 8c9f 2b3d 12ac 6cba
000000e0: ae7a 5f3d 27fb cfbe 7dfa 15be 1deb 80bd
000000f0: 289b 6e3e 9428 d4bd edc5 0c3f bf81 80bd
00000100: fed8 1f3e c8ae fd3d 00e0 d8be c751 803d
00000110: 20a0 1fbe 09af 623c 3fb8 b03d ae50 293d
00000120: 367a 763c 96b7 a9bc 46c6 863d 7b79 553e
00000130: ac9f 01be bb7a 9abc 8755 e33e 5a2d bbbd
00000140: 7812 a43b 73bc 14be 8a93 2e3c 1208 253e
00000150: 4efe 9bbd 9886 0e3e 0e50 8fbd 07cd 883e
00000160: 3b57 67bd b6b3 c3be c7e6 c13d 6c94 2b3d
00000170: f902 103d 91da 87bd b8f7 06bc 6e6b 193d
00000180: ae89 dd3e af93 c23d 41e0 613c 36ef 323e
00000190: f5ad a9bd 1743 103e e2e7 8d3c baa4 983d
000001a0: 6db4 03be b826 bcbd 6501 38be 4080 dbbd
000001b0: d9b8 4ebe a6da 11be 67a2 363e 4761 0c3e
000001c0: 47ae 9dbe ede4 61bc cc8c f03e ef36 e03d
000001d0: e813 f83c c7d7 2b3e fbf9 05be 4ea5 573e
000001e0: 25f1 2b3d 7202 cb3e 8cca 103c 8329 da3d
000001f0: eac3 7c3e e479 8e3d 19a9 1e3e 2dbf 53be
00000200: d288 9dbc c1dc 573e 4a55 323c a363 0bbe
00000210: 1dd8 32be d4a7 743c a476 1dbe c59a 4bbe
00000220: fb44 8e3e 1ff1 eebd 02c7 b23e c6f0 b5bc
00000230: 975a b43c e843 553e 8f97 933e a744 a63c
00000240: 4693 803e 37c2 4e3c d140 0c3e e5ba 1fbd
00000250: b18c b6bd a72b a43e 69e6 e33d 37bc 923d
00000260: cdf3 1e3e 1486 afbe 8ac2 3cbe ca32 113b
00000270: d6c1 333e 2405 32bd 9f5d 64be e35e 87be
00000280: 3c66 ed3d f95b 2a3e b189 eebc 5f06 03be
00000290: 1bd4 523e 493d 133e cca1 44be 0184 39be
000002a0: 64c0 d53d dcbf 2cbc 7153 acbd 25d2 123d
000002b0: 68ad 3e3e 9644 8e3d 5c50 1cbd dbca 4abe
000002c0: 5f02 bf3d 51fa a6be 7e7d bebe 8e5d b1bd
000002d0: aecb 6f3e cc40 d73d 3120 e4bd 48b3 80be
000002e0: 9da8 79bb d222 1dbe 1366 1cbe ac1e 933e
000002f0: bc00 87be 8aae d73d 4a4d 853e 2e1d 03bd

policy.2.bias f4 [3]
0.0011039478 -0.0014551124 0.00025536987
00000000: 57b2 903a 78b9 beba 2ae3 8539

value.0.weight f4 [64, 64]
-0.34758407 0.28850186 0.31726992 0.114713505 0.2628071 -0.112332806 -0.013576217 -0.17563094
-0.13367443 -0.019611824 0.25136775 -0.037834223 0.14925098 0.18446378 -0.017122734 0.13291268
-0.20090576 0.011539366 0.20883287 -0.121056266 0.055321265 -0.16681173 0.1313506 0.09406641
-0.5094024 -0.015950905 -0.015208864 0.08951128 0.0026077868 0.30203745 0.13327602 0.16360936
0.08977257 0.100910604 0.07826433 0.07254182 -0.01971658 -0.05753517 0.14617482 0.09779166
-0.061654773 -0.033010054 0.031241862 -0.13293332 -0.47680476 -0.24036795 -0.2878742 0.15145034
0.14509825 0.2741162 -0.21235998 -0.09470129 -0.07769256 0.11447062 -0.119013116 0.21914728
0.13100797 0.10305178 0.1426883 -0.034296215 0.040734004 0.033167038 -0.17983131 -0.14520878
0.120190136 -0.3155632 -0.05700791 0.098743215 0.098349944 -0.37712148 -0.3136966 -0.10494669
0.15304296 -0.13415058 -0.027566342 -0.009255052 0.2994214 -0.13911147 0.036855508 -0.029828086
0.17871086 0.11821304 -0.14470357 0.12091013 0.13528927 0.00615162 -0.17568897 0.038144786
0.026987256 -0.042719588 0.15828024 -0.030578842 -0.14233683 0.10001984 0.25444853 -0.36825898
0.2703697 -0.23374191 0.06400452 0.019674685 0.031973533 0.031127272 0.08355069 -0.05744148
-0.22696789 -0.054940585 0.31599516 0.13221772 0.05484763 -0.08349002 -0.24171741 0.24918894
-0.0474572 -0.020395283 0.38470414 -0.23361267 -0.16840655 0.22461115 0.1289494 0.23091714
0.09319433 0.15061118 -0.17856574 0.26845956 -0.06174071 -0.12738796 0.07997341 -0.28599772
0.048730027 0.110881396 -0.33336404 -0.15002221 0.005606935 -0.09119352 -0.2661509 -0.059866328
-0.06876854 -0.016108664 -0.09966857 -0.059799507 0.076072864 -0.28717706 0.13258912 -0.0045132237
0.01672309 -0.09643291 0.030168395 0.02499494 -0.319316 0.1533119 -0.28054845 -0.13336013
0.053011164 -0.1579262 -0.17590146 0.055629674 0.16499959 0.3177573 -0.021614574 0.3271929
-0.14261621 0.14819859 -0.2436008 -0.20623258 0.078776345 0.19114044 -0.29685673 0.23393016
-0.042645995 -0.4650605 0.15801828 0.079653956 -0.05813744 0.12195499 -0.164239 -0.30980334
0.03927609 0.098820575 -0.005395804 -0.1919747 -0.14185712 0.28575394 -0.044948302 0.014199912
0.30465454 -0.11597908 -0.080570444 -0.06372615 -0.1350446 0.055823706 -0.36491197 0.070406586
0.11239191 0.09862206 0.29712865 0.20547673 -0.2214712 -0.0326104 0.07550643 0.019036537
0.3635739 0.050074525 -0.023552466 -0.18807921 0.016715616 0.29746422 -0.21150158 -0.3908915
0.2864437 0.10398463 -0.21111403 -0.17076635 -0.25639123 -0.016556296 -0.08294061 -0.07863633
-0.029171327 -0.05694479 -0.11505369 0.16107711 -0.2589719 0.045548316 0.03014867 0.1012625
-0.42218554 0.16168669 -0.07893684 0.044624425 0.004352803 -0.30322286 0.03895763 -0.095410034
-0.44060925 -0.069466196 0.22550707 -0.13762401 -0.1637442 0.24240233 0.0407526 0.13973536
-0.023522394 0.10260163 0.07270248 -0.15436871 0.23031542 0.2010385 0.05913677 -0.31980157
-0.06710384 -0.06892276 -0.13056175 -0.07413391 0.060363602 0.05010199 -0.101069935 -0.071531445
00000000: 8af6 b1be 84b6 933e 3471 a23e eaee ea3d
00000010: a78e 863e be0e e6bd c86e 5ebc 99d8 33be
00000020: f3e1 08be faa8 a0bc 46b3 803e 0ff8 1abd
00000030: 40d5 183e 13e4 3c3e fa44 8cbc 431a 083e
00000040: 3dba 4dbe 9c0f 3d3c 49d8 553e 59ec f7bd
00000050: 8d98 623d b2d0 2abe c680 063e e4a5 c03d
00000060: 3268 02bf 79ab 82bc 992e 79bc b151 b73d
00000070: 67e7 2a3b a7a4 9a3e 8279 083e 3689 273e
00000080: aeda b73d 38aa ce3d 0d49 a03d ce90 943d
00000090: aa84 a1bc 00aa 6bbd daae 153e fe46 c83d
000000a0: b789 7cbd 8d35 07bd efee ff3c ac1f 08be
000000b0: c11f f4be 0423 76be 3f64 93be cc15 1b3e
000000c0: a394 143e f558 8c3e e574 59be c0f2 c1bd
000000d0: 471d 9fbd 936f ea3d 26bd f3bd 2568 603e
000000e0: f426 063e d00c d33d e21c 123e 307a 0cbd
000000f0: b3d8 263d 29da 073d b325 38be 9cb1 14be
00000100: 3f26 f63d 8091 a1be 2081 69bd e239 ca3d
00000110: b26b c93d 1116 c1be d79c a0be 4aee d6bd
00000120: 4bb7 1c3e c55e 09be cfd2 e1bc 80a2 17bc
00000130: c34d 993e 3d73 0ebe cdf5 163d 085a f4bc
00000140: fbff 363e ae19 f23d 2c2d 14be bb9f f73d
00000150: 4589 0a3e 8793 c93b cfe7 33be b53d 1c3d
00000160: 6114 dd3c bcfa 2ebd 3714 223e 7b80 fabc
00000170: bfc0 11be 34d7 cc3d 1447 823e 718c bcbe
00000180: e66d 8a3e 0a5a 6fbe cd14 833d ce2c a13c
00000190: aef6 023d 9ffe fe3c a01c ab3d c247 6bbd
000001a0: 456a 68be 6109 61bd 1eca a13e 1564 073e
000001b0: e9a7 603d d1fc aabd c584 77be 632b 7f3e
000001c0: 7b62 42bd 0214 a7bc f1f7 c43e 2938 6fbe
000001d0: c472 2cbe 7700 663e 500b 043e 8b75 6c3e
000001e0: abdc be3d d139 1a3e f0d9 36be 8873 893e
000001f0: d4e3 7cbd fd71 02be 19c9 a33d 4b6e 92be
00000200: 2399 473d c915 e33d b1ae aabe 6c9f 19be
00000210: 61ba b73b abc3 babd ee44 88be 6536 75bd
00000220: 85d6 8cbd 51f6 83bc 091f ccbd 54f0 74bd
00000230: 17cc 9b3d df08 93be 71c5 073e aae3 93bb
00000240: ddfe 883c 9e7e c5bd b623 f73c 30c2 cc3c
00000250: 637d a3be cbfd 1c3e 0ca4 8fbe 8f8f 08be
00000260: 3c22 593d 68b7 21be 831f 34be f1db 633d
00000270: a7f5 283e 16b1 a23e 0c11 b1bc d485 a73e
00000280: fc09 12be 5fc1 173e 7d72 79be a22e 53be
00000290: 7e55 a13d 52ba 433e 9bfd 97be 638b 6f3e
000002a0: 91ad 2ebd 691c eebe 8bcf 213e 9d21 a33d
000002b0: 8621 6ebd 8ac3 f93d 452e 28be 8b9e 9ebe
000002c0: f7df 203d 7162 ca3d 49cf b0bb 0495 44be
000002d0: fe42 11be 574e 923e b61b 38bd bfa6 683c
000002e0: aefb 9b3e 7186 edbd 1e02 a5bd db82 82bd
000002f0: 2249 0abe 66a7 643d bed5 babe 5431 903d
00000300: bb2d e63d 5dfa c93d 3f21 983e 7e68 523e
00000310: 59c9 62be 7c92 05bd 1da3 9a3d 83f2 9b3c
00000320: 5c26 ba3e f21a 4d3d 1af1 c0bc d697 40be
00000330: 30ef 883c 3b4d 983e df93 58be ee22 c8be
00000340: c0a8 923e e5f5 d43d 472e 58be 60dd 2ebe
00000350: b645 83be 12a1 87bc c4dc a9bd 160c a1bd
00000360: b5f8 eebc f13e 69bd 45a1 ebbd 66f1 243e
00000370: f797 84be df90 3a3d 58fa f63c b762 cf3d
00000380: b428 d8be 3291 253e a3a9 a1bd 1ac8 363d
00000390: f5a1 8e3b 0740 9bbe 0992 1f3d 5666 c3bd
000003a0: 8997 e1be 4b44 8ebd 53eb 663e 4fed 0cbe
000003b0: 8fac 27be 5138 783e 33ec 263d c916 0f3e
000003c0: 09b2 c0bc ce20 d23d 0ae5 943d d512 1ebe
000003d0: ced7 6b3e 09dd 4d3e 6639 723d 08bd a3be
000003e0: bd6d 89bd 6027 8dbd fbb1 05be 85d3 97bd
000003f0: d33f 773d bf37 4d3d c1fd cebd 147f 92bd

value.0.bias f4 [64]
-0.014735639 -0.01463261 -0.008809246 -0.014680058 -0.014757643 -0.014736602 -0.014736559 0.0
0.0 0.0 -0.007591844 0.0 -0.00946152 0.0 -0.014754002 -0.014562053
0.014988459 0.015117443 0.01518329 0.014883403 -0.014393262 -0.013743815 0.0 0.014863696
0.0 0.0 0.0 -0.01473185 0.0 -0.014660552 0.0 -0.005905295
-0.012879574 -0.01466964 0.0 0.015636787 0.0 0.015232975 0.01577568 -0.014593856
-0.008139539 0.01482677 -0.014752349 0.0 0.0 0.0 0.0 -0.00998648
0.0 -0.008325021 -0.014603668 0.0 0.0 0.015403144 -0.014438906 0.0
-0.014726855 0.014844772 0.0 -0.0054502664 0.0 0.014923957 0.0 0.0
00000000: c06d 71bc 9dbd 6fbc a854 10bc a084 70bc
00000010: 0bca 71bc ca71 71bc 9c71 71bc 0000 0000
00000020: 0000 0000 0000 0000 01c5 f8bb 0000 0000
00000030: 7e04 1bbc 0000 0000 c5ba 71bc ad95 6ebc
00000040: 2792 753c 27af 773c 55c3 783c 84d9 733c
00000050: b7d1 6bbc bd2d 61bc 0000 0000 dc86 733c
00000060: 0000 0000 0000 0000 0000 0000 db5d 71bc
00000070: 0000 0000 d032 70bc 0000 0000 3481 c1bb
00000080: d904 53bc ee58 70bc 0000 0000 b818 803c
00000090: 0000 0000 ba93 793c 003c 813c 121b 6fbc
000000a0: b35b 05bc fbeb 723c d6b3 71bc 0000 0000
000000b0: 0000 0000 0000 0000 0000 0000 559e 23bc
000000c0: 0000 0000 ab65 08bc 3944 6fbc 0000 0000
000000d0: 0000 0000 785d 7c3c 2991 6cbc 0000 0000
000000e0: e848 71bc 7d37 733c 0000 0000 2698 b2bb
000000f0: 0000 0000 9d83 743c 0000 0000 0000 0000

value.2.weight f4 [1, 64]
0.18636036 0.08401496 0.007841825 0.09487151 0.2890104 0.18910284 0.24624348 -0.2833201
0.0033246365 -0.01620618 0.09997103 0.09123605 0.18916573 -0.01690773 0.26636362 0.04339077
-0.10607707 -0.12878662 -0.07601893 -0.1529687 0.057051674 0.0034645826 -0.30818695 -0.2673378
0.24148709 -0.024460621 0.015755653 0.17531249 0.12669429 0.0820556 0.1692237 0.086253256
0.38476774 0.086343035 0.031626377 -0.08805613 -0.178171 -0.04048119 -0.40855387 0.067281395
0.011779843 -0.44473165 0.2547868 0.16574846 -0.01125471 -0.037407126 -0.23338425 0.029104553
0.35888344 0.17373167 0.054522447 -0.12091047 0.104879715 -0.2765394 0.027293272 -0.05665167
0.16212839 -0.27449346 0.05001857 0.18285488 0.064036325 -0.10715475 -0.07812044 0.1506149
00000000: 40d5 3e3e 0910 ac3d ff7a 003c ff4b c23d
00000010: 2cf9 933e 2da4 413e 4027 7c3e 550f 91be
00000020: 25e2 593b d3c2 84bc 9dbd cc3d f7d9 ba3d
00000030: a9b4 413e 1482 8abc d060 883e 85ba 313d
00000040: ef3e d9bd a4e0 03be d0af 9bbd d4a3 1cbe
00000050: 04af 693d 0d0e 633b aeca 9dbe 80e0 88be
00000060: 6448 773e a461 c8bc 0012 813c 1e85 333e
00000070: 26bc 013e c40c a83d fa48 2d3e 8ca5 b03d
00000080: 4700 c53e 9ed4 b03d a98a 013d c656 b4bd
00000090: 7572 36be 9bcf 25bd f92d d1be d4ca 893d
000000a0: 3e00 413c deb3 e3be 6a73 823e f7b9 293e
000000b0: ad65 38bc 3738 19bd 48fc 6ebe ac6c ee3c
000000c0: 92bf b73e b7e6 313e ee52 5f3d e99f f7bd
000000d0: 2dcb d63d 9296 8dbe 2496 df3c 950b 68bd
000000e0: fc04 263e 688a 8cbe 46e0 4c3d 4f3e 3b3e
000000f0: 7a25 833d f373 dbbd 9cfd 9fbd cb3a 1a3e

exp_avg f4 [64, 64]
-1.0068198e-05 -0.00018979062 -6.8105335e-05 -6.2763575e-05 -5.1689552e-05 -8.981364e-06 1.16791025e-05 7.94556e-06
-0.000105228486 -1.008527e-05 -0.00038667576 -0.000103693776 -0.00020541405 -8.224074e-05 -3.365488e-05 2.3265243e-06
-1.0959251e-05 -1.7409424e-05 1.2091603e-07 -1.297463e-05 5.309677e-06 -6.3128035e-05 -6.0317892e-05 9.695212e-07
2.7943545e-07 -0.0002988763 -3.6796225e-06 -0.00011015536 -5.822004e-05 -8.23427e-05 -0.00019885153 -0.00030277713
-8.745449e-05 -1.9245217e-05 4.2186484e-06 -0.00011573409 1.634599e-06 2.8715658e-06 -3.4158278e-05 -0.00014770505
-4.8468355e-05 -3.4104738e-05 -0.00016031737 -5.2716463e-05 -7.3470505e-06 1.8666657e-06 -8.629913e-05 -0.00022927696
-5.0725335e-05 -3.655628e-05 -6.4404776e-05 -2.1840857e-05 -1.5187162e-06 -1.4406972e-05 -1.6744125e-05 -8.298853e-06
-1.42133285e-05 -2.157199e-05 -1.4927791e-05 9.621142e-07 -1.7102977e-06 -2.0859126e-05 -2.456702e-05 -0.00029437256
3.3463097e-05 0.00062974496 0.00021077732 0.00021063487 0.00017868976 3.710394e-05 -3.2380576e-05 5.7561515e-06
0.00037459668 7.326362e-05 0.0012825951 0.0003168747 0.0007000943 0.0002877572 0.000152185 -6.0199995e-06
3.6184603e-05 6.175265e-05 8.515838e-06 4.0439212e-05 -1.03186185e-05 0.00019182323 0.00018950095 -3.3976423e-06
6.5474984e-07 0.0009834166 1.6103575e-05 0.00037412497 0.0001659016 0.00020240218 0.0006524332 0.0009786912
0.00029591587 5.3674772e-05 -8.669799e-06 0.0003878207 -4.65701e-06 -7.771078e-06 0.00013912247 0.00047212408
0.00016045832 0.00011304405 0.000555177 0.00014848914 1.8332496e-05 -7.3482925e-06 0.00032901624 0.0007192865
0.00018621143 0.00014140658 0.00025444283 6.182133e-05 8.213335e-06 3.0517358e-05 5.8118596e-05 1.8026547e-05
3.7217043e-05 6.818862e-05 4.374086e-05 -5.5988094e-06 8.731868e-06 5.444112e-05 6.11022e-05 0.0009889563
0.0 0.0 0.0 0.0 0.0 0.0 0.0 0.0
0.0 0.0 0.0 0.0 0.0 0.0 0.0 0.0
0.0 0.0 0.0 0.0 0.0 0.0 0.0 0.0
0.0 0.0 0.0 0.0 0.0 0.0 0.0 0.0
0.0 0.0 0.0 0.0 0.0 0.0 0.0 0.0
0.0 0.0 0.0 0.0 0.0 0.0 0.0 0.0
0.0 0.0 0.0 0.0 0.0 0.0 0.0 0.0
0.0 0.0 0.0 0.0 0.0 0.0 0.0 0.0
-2.0255293e-05 -0.00038082944 -0.0001319426 -0.00012664596 -0.000105917075 -2.0283605e-05 2.1476202e-05 6.038165e-06
-0.00021902057 -3.2522432e-05 -0.00077575946 -0.00019969611 -0.00041789934 -0.00016953997 -8.009843e-05 4.1459634e-06
-2.1942582e-05 -3.616508e-05 -2.5067416e-06 -2.5232586e-05 8.4089215e-06 -0.00012125645 -0.00011771194 1.9998101e-06
7.369798e-08 -0.0005971286 -8.578632e-06 -0.00022366982 -0.00010841657 -0.0001433128 -0.000396675 -0.0005995279
-0.0001772622 -3.5477766e-05 6.824249e-06 -0.00023342775 3.0455412e-06 5.2388436e-06 -7.6559685e-05 -0.00029082966
-9.70566e-05 -6.839804e-05 -0.00032878734 -9.759861e-05 -1.2877224e-05 4.1111643e-06 -0.00018633813 -0.0004473415
-0.00010729499 -7.95229e-05 -0.00014178593 -4.0559607e-05 -4.024718e-06 -2.3546889e-05 -3.4403227e-05 -1.3710732e-05
-2.5435058e-05 -4.219118e-05 -2.8160754e-05 2.6731348e-06 -4.3737796e-06 -3.729192e-05 -4.2980253e-05 -0.0005944232
00000000: 95ea 28b7 8802 47b9 c6d3 8eb8 f09f 83b8
00000010: 3ccd 58b8 aaae 16b7 5df1 4337 ec4d 0537
00000020: 1dae dcb8 e833 29b7 beba cab9 2c76 d9b8
00000030: 6a64 57b9 a978 acb8 a728 0db8 6221 1c36
00000040: a0dd 37b7 740a 92b7 25d5 0134 9dad 59b7
00000050: c729 b236 9b63 84b8 d8fd 7cb8 7f20 8235
00000060: 5105 9634 7fb2 9cb9 6fef 76b6 3503 e7b8
00000070: 4b31 74b8 67af acb8 cd82 50b9 0fbe 9eb9
00000080: c667 b7b8 ca70 a1b7 ea8d 8d36 44b6 f2b8
00000090: 6564 db35 20b5 4036 2c45 0fb8 46e1 1ab9
000000a0: 804a 4bb8 af0b 0fb8 de1a 28b9 df1b 5db8
000000b0: af86 f6b6 258a fa35 7efb b4b8 116a 70b9
000000c0: eac1 54b8 0254 19b8 0d11 87b8 e236 b7b7
000000d0: b1d6 cbb5 79b5 71b7 bc75 8cb7 4d3b 0bb7
000000e0: c875 6eb7 7ff5 b4b7 6072 7ab7 fe21 8135
000000f0: 628d e5b5 a2fa aeb7 4615 ceb7 0456 9ab9
00000100: ba5a 0c38 7815 253a 1b04 5d39 dedd 5c39
00000110: ab5e 3b39 0da0 1b38 61d0 07b8 f724 c136
00000120: 8465 c439 1ba5 9938 c01c a83a 3422 a639
00000130: 8886 373a 1ede 9639 da93 1f39 67ff c9b6
00000140: ecc4 1738 3481 8138 3fdf 0e37 469d 2938
00000150: 211e 2db7 2824 4939 c6b4 4639 0d03 64b6
00000160: 11c2 2f35 fce5 803a 2a16 8737 3426 c439
00000170: dff5 2d39 ec3b 5439 0d08 2b3a 6d47 803a
00000180: 2825 9b39 d920 6138 8174 11b7 6a54 cb39
00000190: 6943 9cb6 8760 02b7 67e1 1139 6c87 f739
000001a0: b440 2839 1012 ed38 4c89 113a c0b3 1b39
000001b0: bcc8 9937 5a91 f6b6 d07f ac39 808e 3c3a
000001c0: c041 4339 8a46 1439 bd66 8539 13a6 8138
000001d0: 01cc 0937 87ff ff37 5ec4 7338 b737 9737
000001e0: 7f19 1c38 7d00 8f38 6476 3738 68dd bbb6
000001f0: 167f 1237 b557 6438 fe23 8038 de9f 813a
00000200: 0000 0000 0000 0000 0000 0000 0000 0000
00000210: 0000 0000 0000 0000 0000 0000 0000 0000
00000220: 0000 0000 0000 0000 0000 0000 0000 0000
00000230: 0000 0000 0000 0000 0000 0000 0000 0000
00000240: 0000 0000 0000 0000 0000 0000 0000 0000
00000250: 0000 0000 0000 0000 0000 0000 0000 0000
00000260: 0000 0000 0000 0000 0000 0000 0000 0000
00000270: 0000 0000 0000 0000 0000 0000 0000 0000
00000280: 0000 0000 0000 0000 0000 0000 0000 0000
00000290: 0000 0000 0000 0000 0000 0000 0000 0000
000002a0: 0000 0000 0000 0000 0000 0000 0000 0000
000002b0: 0000 0000 0000 0000 0000 0000 0000 0000
000002c0: 0000 0000 0000 0000 0000 0000 0000 0000
000002d0: 0000 0000 0000 0000 0000 0000 0000 0000
000002e0: 0000 0000 0000 0000 0000 0000 0000 0000
000002f0: 0000 0000 0000 0000 0000 0000 0000 0000
00000300: e9e9 a9b7 10aa c7b9 125a 0ab9 44cc 04b9
00000310: cc1f deb8 b626 aab7 cb27 b437 719b ca36
00000320: e3a8 65b9 b268 08b8 565c 4bba 8465 51b9
00000330: 8019 dbb9 8ac6 31b9 84fa a7b8 8e1d 8b36
00000340: 5611 b8b7 f5af 17b8 7e39 28b6 91aa d3b7
00000350: 0b14 0d37 104b feb8 1edc f6b8 7a34 0636
00000360: e543 9e33 9f88 1cba f2ec 0fb7 e988 6ab9
00000370: b45d e3b8 3d46 16b9 d1f8 cfb9 a329 1dba
00000380: 76df 39b9 f6cd 14b8 dafb e436 49c4 74b9
00000390: 0062 4c36 53c9 af36 ab8e a0b8 7f7a 98b9
000003a0: de8a cbb8 eb70 8fb8 1761 acb9 dbad ccb8
000003b0: 420b 58b7 a2f2 8936 c363 43b9 2989 eab9
000003c0: 8f03 e1b8 88c5 a6b8 5fac 14b9 8c1e 2ab8
000003d0: 100c 87b6 8f86 c5b7 2f4c 10b8 2507 66b7
000003e0: 5f5d d5b7 6ff6 30b8 c23a ecb7 1b64 3336
000003f0: 7bc2 92b6 e569 1cb8 b245 34b8 11d3 1bba
